…
[38;5;15m  [39m[38;5;197mMIN_SIZE_TEST[39m[38;5;15m:[39m[38;5;15m [39m[38;5;141m800[39m
[38;5;15m  [39m[38;5;197mMAX_SIZE_TRAIN[39m[38;5;15m:[39m[38;5;15m [39m[38;5;141m1500[39m
[38;5;15m  [39m[38;5;197mCROP[39m[38;5;15m:[39m
[38;5;15m    [39m[38;5;197mENABLED[39m[38;5;15m:[39m[38;5;15m [39m[38;5;141mFalse[39m
[38;5;15m  [39m[38;5;197mFORMAT[39m[38;5;15m:[39m[38;5;15m [39m[38;5;186m"[39m[38;5;186mRGB[39m[38;5;186m"[39m
[38;5;197mOUTPUT_DIR[39m[38;5;15m:[39m[38;5;15m [39m[38;5;186m"[39m[38;5;186moutput_mix20[39m[38;5;186m"[39m

[09/27 13:18:12] detectron2.engine.defaults INFO: Model:
MDR(
  (backbone): FPN(
    (fpn_lateral2): Conv2d(256, 256, kernel_size=(1, 1), stride=(1, 1))
    (fpn_output2): Conv2d(256, 256, kernel_size=(3, 3), stride=(1, 1), padding=(1, 1))
    (fpn_lateral3): Conv2d(512, 256, kernel_size=(1, 1), stride=(1, 1))
    (fpn_output3): Conv2d(256, 256, kernel_size=(3, 3), stride=(1, 1), padding=(1, 1))
    (fpn_lateral4): Conv2d(1024, 256, kernel_size=(1, 1), stride=(1, 1))
    (fpn_output4): Conv2d(256, 256, kernel_size=(3, 3), stride=(1, 1), padding=(1, 1))
    (fpn_lateral5): Conv2d(2048, 256, kernel_size=(1, 1), stride=(1, 1))
    (fpn_output5): Conv2d(256, 256, kernel_size=(3, 3), stride=(1, 1), padding=(1, 1))
    (top_block): LastLevelMaxPool()
    (bottom_up): ResNet(
      (stem): BasicStem(
        (conv1): Conv2d(
          3, 64, kernel_size=(7, 7), stride=(2, 2), padding=(3, 3), bias=False
          (norm): FrozenBatchNorm2d(num_features=64, eps=1e-05)
        )
      )
      (res2): Sequential(
        (0): BottleneckBlock(
          (shortcut): Conv2d(
            64, 256, kernel_size=(1, 1), stride=(1, 1), bias=False
            (norm): FrozenBatchNorm2d(num_features=256, eps=1e-05)
          )
          (conv1): Conv2d(
            64, 64, kernel_size=(1, 1), stride=(1, 1), bias=False
            (norm): FrozenBatchNorm2d(num_features=64, eps=1e-05)
          )
          (conv2): Conv2d(
            64, 64, kernel_size=(3, 3), stride=(1, 1), padding=(1, 1), bias=False
            (norm): FrozenBatchNorm2d(num_features=64, eps=1e-05)
          )
          (conv3): Conv2d(
            64, 256, kernel_size=(1, 1), stride=(1, 1), bias=False
            (norm): FrozenBatchNorm2d(num_features=256, eps=1e-05)
          )
        )
        (1): BottleneckBlock(
          (conv1): Conv2d(
            256, 64, kernel_size=(1, 1), stride=(1, 1), bias=False
            (norm): FrozenBatchNorm2d(num_features=64, eps=1e-05)
          )
          (conv2): Conv2d(
            64, 64, kernel_size=(3, 3), stride=(1, 1), padding=(1, 1), bias=False
            (norm): FrozenBatchNorm2d(num_features=64, eps=1e-05)
          )
          (conv3): Conv2d(
            64, 256, kernel_size=(1, 1), stride=(1, 1), bias=False
            (norm): FrozenBatchNorm2d(num_features=256, eps=1e-05)
          )
        )
        (2): BottleneckBlock(
          (conv1): Conv2d(
            256, 64, kernel_size=(1, 1), stride=(1, 1), bias=False
            (norm): FrozenBatchNorm2d(num_features=64, eps=1e-05)
          )
          (conv2): Conv2d(
            64, 64, kernel_size=(3, 3), stride=(1, 1), padding=(1, 1), bias=False
            (norm): FrozenBatchNorm2d(num_features=64, eps=1e-05)
          )
          (conv3): Conv2d(
            64, 256, kernel_size=(1, 1), stride=(1, 1), bias=False
            (norm): FrozenBatchNorm2d(num_features=256, eps=1e-05)
          )
        )
      )
      (res3): Sequential(
        (0): BottleneckBlock(
          (shortcut): Conv2d(
            256, 512, kernel_size=(1, 1), stride=(2, 2), bias=False
            (norm): FrozenBatchNorm2d(num_features=512, eps=1e-05)
          )
          (conv1): Conv2d(
            256, 128, kernel_size=(1, 1), stride=(1, 1), bias=False
            (norm): FrozenBatchNorm2d(num_features=128, eps=1e-05)
          )
          (conv2): Conv2d(
            128, 128, kernel_size=(3, 3), stride=(2, 2), padding=(1, 1), bias=False
            (norm): FrozenBatchNorm2d(num_features=128, eps=1e-05)
          )
          (conv3): Conv2d(
            128, 512, kernel_size=(1, 1), stride=(1, 1), bias=False
            (norm): FrozenBatchNorm2d(num_features=512, eps=1e-05)
          )
        )
        (1): BottleneckBlock(
          (conv1): Conv2d(
            512, 128, kernel_size=(1, 1), stride=(1, 1), bias=False
            (norm): FrozenBatchNorm2d(num_features=128, eps=1e-05)
          )
          (conv2): Conv2d(
            128, 128, kernel_size=(3, 3), stride=(1, 1), padding=(1, 1), bias=False
            (norm): FrozenBatchNorm2d(num_features=128, eps=1e-05)
          )
          (conv3): Conv2d(
            128, 512, kernel_size=(1, 1), stride=(1, 1), bias=False
            (norm): FrozenBatchNorm2d(num_features=512, eps=1e-05)
          )
        )
        (2): BottleneckBlock(
          (conv1): Conv2d(
            512, 128, kernel_size=(1, 1), stride=(1, 1), bias=False
            (norm): FrozenBatchNorm2d(num_features=128, eps=1e-05)
          )
          (conv2): Conv2d(
            128, 128, kernel_size=(3, 3), stride=(1, 1), padding=(1, 1), bias=False
            (norm): FrozenBatchNorm2d(num_features=128, eps=1e-05)
          )
          (conv3): Conv2d(
            128, 512, kernel_size=(1, 1), stride=(1, 1), bias=False
            (norm): FrozenBatchNorm2d(num_features=512, eps=1e-05)
          )
        )
        (3): BottleneckBlock(
          (conv1): Conv2d(
            512, 128, kernel_size=(1, 1), stride=(1, 1), bias=False
            (norm): FrozenBatchNorm2d(num_features=128, eps=1e-05)
          )
          (conv2): Conv2d(
            128, 128, kernel_size=(3, 3), stride=(1, 1), padding=(1, 1), bias=False
            (norm): FrozenBatchNorm2d(num_features=128, eps=1e-05)
          )
          (conv3): Conv2d(
            128, 512, kernel_size=(1, 1), stride=(1, 1), bias=False
            (norm): FrozenBatchNorm2d(num_features=512, eps=1e-05)
          )
        )
      )
      (res4): Sequential(
        (0): BottleneckBlock(
          (shortcut): Conv2d(
            512, 1024, kernel_size=(1, 1), stride=(2, 2), bias=False
            (norm): FrozenBatchNorm2d(num_features=1024, eps=1e-05)
          )
          (conv1): Conv2d(
            512, 256, kernel_size=(1, 1), stride=(1, 1), bias=False
            (norm): FrozenBatchNorm2d(num_features=256, eps=1e-05)
          )
          (conv2): Conv2d(
            256, 256, kernel_size=(3, 3), stride=(2, 2), padding=(1, 1), bias=False
            (norm): FrozenBatchNorm2d(num_features=256, eps=1e-05)
          )
          (conv3): Conv2d(
            256, 1024, kernel_size=(1, 1), stride=(1, 1), bias=False
            (norm): FrozenBatchNorm2d(num_features=1024, eps=1e-05)
          )
        )
        (1): BottleneckBlock(
          (conv1): Conv2d(
            1024, 256, kernel_size=(1, 1), stride=(1, 1), bias=False
            (norm): FrozenBatchNorm2d(num_features=256, eps=1e-05)
          )
          (conv2): Conv2d(
            256, 256, kernel_size=(3, 3), stride=(1, 1), padding=(1, 1), bias=False
            (norm): FrozenBatchNorm2d(num_features=256, eps=1e-05)
          )
          (conv3): Conv2d(
            256, 1024, kernel_size=(1, 1), stride=(1, 1), bias=False
            (norm): FrozenBatchNorm2d(num_features=1024, eps=1e-05)
          )
        )
        (2): BottleneckBlock(
          (conv1): Conv2d(
            1024, 256, kernel_size=(1, 1), stride=(1, 1), bias=False
            (norm): FrozenBatchNorm2d(num_features=256, eps=1e-05)
          )
          (conv2): Conv2d(
            256, 256, kernel_size=(3, 3), stride=(1, 1), padding=(1, 1), bias=False
            (norm): FrozenBatchNorm2d(num_features=256, eps=1e-05)
          )
          (conv3): Conv2d(
            256, 1024, kernel_size=(1, 1), stride=(1, 1), bias=False
            (norm): FrozenBatchNorm2d(num_features=1024, eps=1e-05)
          )
        )
        (3): BottleneckBlock(
          (conv1): Conv2d(
            1024, 256, kernel_size=(1, 1), stride=(1, 1), bias=False
            (norm): FrozenBatchNorm2d(num_features=256, eps=1e-05)
          )
          (conv2): Conv2d(
            256, 256, kernel_size=(3, 3), stride=(1, 1), padding=(1, 1), bias=False
            (norm): FrozenBatchNorm2d(num_features=256, eps=1e-05)
          )
          (conv3): Conv2d(
            256, 1024, kernel_size=(1, 1), stride=(1, 1), bias=False
            (norm): FrozenBatchNorm2d(num_features=1024, eps=1e-05)
          )
        )
        (4): BottleneckBlock(
          (conv1): Conv2d(
            1024, 256, kernel_size=(1, 1), stride=(1, 1), bias=False
            (norm): FrozenBatchNorm2d(num_features=256, eps=1e-05)
          )
          (conv2): Conv2d(
            256, 256, kernel_size=(3, 3), stride=(1, 1), padding=(1, 1), bias=False
            (norm): FrozenBatchNorm2d(num_features=256, eps=1e-05)
          )
          (conv3): Conv2d(
            256, 1024, kernel_size=(1, 1), stride=(1, 1), bias=False
            (norm): FrozenBatchNorm2d(num_features=1024, eps=1e-05)
          )
        )
        (5): BottleneckBlock(
          (conv1): Conv2d(
            1024, 256, kernel_size=(1, 1), stride=(1, 1), bias=False
            (norm): FrozenBatchNorm2d(num_features=256, eps=1e-05)
          )
          (conv2): Conv2d(
            256, 256, kernel_size=(3, 3), stride=(1, 1), padding=(1, 1), bias=False
            (norm): FrozenBatchNorm2d(num_features=256, eps=1e-05)
          )
          (conv3): Conv2d(
            256, 1024, kernel_size=(1, 1), stride=(1, 1), bias=False
            (norm): FrozenBatchNorm2d(num_features=1024, eps=1e-05)
          )
        )
      )
      (res5): Sequential(
        (0): BottleneckBlock(
          (shortcut): Conv2d(
            1024, 2048, kernel_size=(1, 1), stride=(2, 2), bias=False
            (norm): FrozenBatchNorm2d(num_features=2048, eps=1e-05)
          )
          (conv1): Conv2d(
            1024, 512, kernel_size=(1, 1), stride=(1, 1), bias=False
            (norm): FrozenBatchNorm2d(num_features=512, eps=1e-05)
          )
          (conv2): Conv2d(
            512, 512, kernel_size=(3, 3), stride=(2, 2), padding=(1, 1), bias=False
            (norm): FrozenBatchNorm2d(num_features=512, eps=1e-05)
          )
          (conv3): Conv2d(
            512, 2048, kernel_size=(1, 1), stride=(1, 1), bias=False
            (norm): FrozenBatchNorm2d(num_features=2048, eps=1e-05)
          )
        )
        (1): BottleneckBlock(
          (conv1): Conv2d(
            2048, 512, kernel_size=(1, 1), stride=(1, 1), bias=False
            (norm): FrozenBatchNorm2d(num_features=512, eps=1e-05)
          )
          (conv2): Conv2d(
            512, 512, kernel_size=(3, 3), stride=(1, 1), padding=(1, 1), bias=False
            (norm): FrozenBatchNorm2d(num_features=512, eps=1e-05)
          )
          (conv3): Conv2d(
            512, 2048, kernel_size=(1, 1), stride=(1, 1), bias=False
            (norm): FrozenBatchNorm2d(num_features=2048, eps=1e-05)
          )
        )
        (2): BottleneckBlock(
          (conv1): Conv2d(
            2048, 512, kernel_size=(1, 1), stride=(1, 1), bias=False
            (norm): FrozenBatchNorm2d(num_features=512, eps=1e-05)
          )
          (conv2): Conv2d(
            512, 512, kernel_size=(3, 3), stride=(1, 1), padding=(1, 1), bias=False
            (norm): FrozenBatchNorm2d(num_features=512, eps=1e-05)
          )
          (conv3): Conv2d(
            512, 2048, kernel_size=(1, 1), stride=(1, 1), bias=False
            (norm): FrozenBatchNorm2d(num_features=2048, eps=1e-05)
          )
        )
      )
    )
  )
  (init_proposal_features): Embedding(500, 256)
  (init_proposal_boxes): Embedding(500, 4)
  (head): DynamicHead(
    (box_pooler): ROIPooler(
      (level_poolers): ModuleList(
        (0): ROIAlign(output_size=(7, 7), spatial_scale=0.25, sampling_ratio=2, aligned=True)
        (1): ROIAlign(output_size=(7, 7), spatial_scale=0.125, sampling_ratio=2, aligned=True)
        (2): ROIAlign(output_size=(7, 7), spatial_scale=0.0625, sampling_ratio=2, aligned=True)
        (3): ROIAlign(output_size=(7, 7), spatial_scale=0.03125, sampling_ratio=2, aligned=True)
      )
    )
    (head_series): ModuleList(
      (0): RCNNHead(
        (self_attn): MultiheadAttention(
          (out_proj): NonDynamicallyQuantizableLinear(in_features=256, out_features=256, bias=True)
        )
        (inst_interact): DynamicConv(
          (dynamic_layer): Linear(in_features=256, out_features=32768, bias=True)
          (norm1): LayerNorm((64,), eps=1e-05, elementwise_affine=True)
          (norm2): LayerNorm((256,), eps=1e-05, elementwise_affine=True)
          (activation): ReLU(inplace=True)
          (out_layer): Linear(in_features=12544, out_features=256, bias=True)
          (norm3): LayerNorm((256,), eps=1e-05, elementwise_affine=True)
        )
        (linear1): Linear(in_features=256, out_features=2048, bias=True)
        (dropout): Dropout(p=0.0, inplace=False)
        (linear2): Linear(in_features=2048, out_features=256, bias=True)
        (norm1): LayerNorm((256,), eps=1e-05, elementwise_affine=True)
        (norm2): LayerNorm((256,), eps=1e-05, elementwise_affine=True)
        (norm3): LayerNorm((256,), eps=1e-05, elementwise_affine=True)
        (dropout1): Dropout(p=0.0, inplace=False)
        (dropout2): Dropout(p=0.0, inplace=False)
        (dropout3): Dropout(p=0.0, inplace=False)
        (cls_module): ModuleList(
          (0): Linear(in_features=256, out_features=256, bias=False)
          (1): LayerNorm((256,), eps=1e-05, elementwise_affine=True)
          (2): ReLU(inplace=True)
        )
        (reg_module): ModuleList(
          (0): Linear(in_features=256, out_features=256, bias=False)
          (1): LayerNorm((256,), eps=1e-05, elementwise_affine=True)
          (2): ReLU(inplace=True)
          (3): Linear(in_features=256, out_features=256, bias=False)
          (4): LayerNorm((256,), eps=1e-05, elementwise_affine=True)
          (5): ReLU(inplace=True)
          (6): Linear(in_features=256, out_features=256, bias=False)
          (7): LayerNorm((256,), eps=1e-05, elementwise_affine=True)
          (8): ReLU(inplace=True)
        )
        (class_logits): Linear(in_features=256, out_features=1, bias=True)
        (bboxes_delta): Linear(in_features=256, out_features=4, bias=True)
      )
      (1): RCNNHead(
        (self_attn): MultiheadAttention(
          (out_proj): NonDynamicallyQuantizableLinear(in_features=256, out_features=256, bias=True)
        )
        (inst_interact): DynamicConv(
          (dynamic_layer): Linear(in_features=256, out_features=32768, bias=True)
          (norm1): LayerNorm((64,), eps=1e-05, elementwise_affine=True)
          (norm2): LayerNorm((256,), eps=1e-05, elementwise_affine=True)
          (activation): ReLU(inplace=True)
          (out_layer): Linear(in_features=12544, out_features=256, bias=True)
          (norm3): LayerNorm((256,), eps=1e-05, elementwise_affine=True)
        )
        (linear1): Linear(in_features=256, out_features=2048, bias=True)
        (dropout): Dropout(p=0.0, inplace=False)
        (linear2): Linear(in_features=2048, out_features=256, bias=True)
        (norm1): LayerNorm((256,), eps=1e-05, elementwise_affine=True)
        (norm2): LayerNorm((256,), eps=1e-05, elementwise_affine=True)
        (norm3): LayerNorm((256,), eps=1e-05, elementwise_affine=True)
        (dropout1): Dropout(p=0.0, inplace=False)
        (dropout2): Dropout(p=0.0, inplace=False)
        (dropout3): Dropout(p=0.0, inplace=False)
        (cls_module): ModuleList(
          (0): Linear(in_features=256, out_features=256, bias=False)
          (1): LayerNorm((256,), eps=1e-05, elementwise_affine=True)
          (2): ReLU(inplace=True)
        )
        (reg_module): ModuleList(
          (0): Linear(in_features=256, out_features=256, bias=False)
          (1): LayerNorm((256,), eps=1e-05, elementwise_affine=True)
          (2): ReLU(inplace=True)
          (3): Linear(in_features=256, out_features=256, bias=False)
          (4): LayerNorm((256,), eps=1e-05, elementwise_affine=True)
          (5): ReLU(inplace=True)
          (6): Linear(in_features=256, out_features=256, bias=False)
          (7): LayerNorm((256,), eps=1e-05, elementwise_affine=True)
          (8): ReLU(inplace=True)
        )
        (class_logits): Linear(in_features=256, out_features=1, bias=True)
        (bboxes_delta): Linear(in_features=256, out_features=4, bias=True)
      )
      (2): RCNNHead(
        (self_attn): MultiheadAttention(
          (out_proj): NonDynamicallyQuantizableLinear(in_features=256, out_features=256, bias=True)
        )
        (inst_interact): DynamicConv(
          (dynamic_layer): Linear(in_features=256, out_features=32768, bias=True)
          (norm1): LayerNorm((64,), eps=1e-05, elementwise_affine=True)
          (norm2): LayerNorm((256,), eps=1e-05, elementwise_affine=True)
          (activation): ReLU(inplace=True)
          (out_layer): Linear(in_features=12544, out_features=256, bias=True)
          (norm3): LayerNorm((256,), eps=1e-05, elementwise_affine=True)
        )
        (linear1): Linear(in_features=256, out_features=2048, bias=True)
        (dropout): Dropout(p=0.0, inplace=False)
        (linear2): Linear(in_features=2048, out_features=256, bias=True)
        (norm1): LayerNorm((256,), eps=1e-05, elementwise_affine=True)
        (norm2): LayerNorm((256,), eps=1e-05, elementwise_affine=True)
        (norm3): LayerNorm((256,), eps=1e-05, elementwise_affine=True)
        (dropout1): Dropout(p=0.0, inplace=False)
        (dropout2): Dropout(p=0.0, inplace=False)
        (dropout3): Dropout(p=0.0, inplace=False)
        (cls_module): ModuleList(
          (0): Linear(in_features=256, out_features=256, bias=False)
          (1): LayerNorm((256,), eps=1e-05, elementwise_affine=True)
          (2): ReLU(inplace=True)
        )
        (reg_module): ModuleList(
          (0): Linear(in_features=256, out_features=256, bias=False)
          (1): LayerNorm((256,), eps=1e-05, elementwise_affine=True)
          (2): ReLU(inplace=True)
          (3): Linear(in_features=256, out_features=256, bias=False)
          (4): LayerNorm((256,), eps=1e-05, elementwise_affine=True)
          (5): ReLU(inplace=True)
          (6): Linear(in_features=256, out_features=256, bias=False)
          (7): LayerNorm((256,), eps=1e-05, elementwise_affine=True)
          (8): ReLU(inplace=True)
        )
        (class_logits): Linear(in_features=256, out_features=1, bias=True)
        (bboxes_delta): Linear(in_features=256, out_features=4, bias=True)
      )
      (3): RCNNHead(
        (self_attn): MultiheadAttention(
          (out_proj): NonDynamicallyQuantizableLinear(in_features=256, out_features=256, bias=True)
        )
        (inst_interact): DynamicConv(
          (dynamic_layer): Linear(in_features=256, out_features=32768, bias=True)
          (norm1): LayerNorm((64,), eps=1e-05, elementwise_affine=True)
          (norm2): LayerNorm((256,), eps=1e-05, elementwise_affine=True)
          (activation): ReLU(inplace=True)
          (out_layer): Linear(in_features=12544, out_features=256, bias=True)
          (norm3): LayerNorm((256,), eps=1e-05, elementwise_affine=True)
        )
        (linear1): Linear(in_features=256, out_features=2048, bias=True)
        (dropout): Dropout(p=0.0, inplace=False)
        (linear2): Linear(in_features=2048, out_features=256, bias=True)
        (norm1): LayerNorm((256,), eps=1e-05, elementwise_affine=True)
        (norm2): LayerNorm((256,), eps=1e-05, elementwise_affine=True)
        (norm3): LayerNorm((256,), eps=1e-05, elementwise_affine=True)
        (dropout1): Dropout(p=0.0, inplace=False)
        (dropout2): Dropout(p=0.0, inplace=False)
        (dropout3): Dropout(p=0.0, inplace=False)
        (cls_module): ModuleList(
          (0): Linear(in_features=256, out_features=256, bias=False)
          (1): LayerNorm((256,), eps=1e-05, elementwise_affine=True)
          (2): ReLU(inplace=True)
        )
        (reg_module): ModuleList(
          (0): Linear(in_features=256, out_features=256, bias=False)
          (1): LayerNorm((256,), eps=1e-05, elementwise_affine=True)
          (2): ReLU(inplace=True)
          (3): Linear(in_features=256, out_features=256, bias=False)
          (4): LayerNorm((256,), eps=1e-05, elementwise_affine=True)
          (5): ReLU(inplace=True)
          (6): Linear(in_features=256, out_features=256, bias=False)
          (7): LayerNorm((256,), eps=1e-05, elementwise_affine=True)
          (8): ReLU(inplace=True)
        )
        (class_logits): Linear(in_features=256, out_features=1, bias=True)
        (bboxes_delta): Linear(in_features=256, out_features=4, bias=True)
      )
      (4): RCNNHead(
        (self_attn): MultiheadAttention(
          (out_proj): NonDynamicallyQuantizableLinear(in_features=256, out_features=256, bias=True)
        )
        (inst_interact): DynamicConv(
          (dynamic_layer): Linear(in_features=256, out_features=32768, bias=True)
          (norm1): LayerNorm((64,), eps=1e-05, elementwise_affine=True)
          (norm2): LayerNorm((256,), eps=1e-05, elementwise_affine=True)
          (activation): ReLU(inplace=True)
          (out_layer): Linear(in_features=12544, out_features=256, bias=True)
          (norm3): LayerNorm((256,), eps=1e-05, elementwise_affine=True)
        )
        (linear1): Linear(in_features=256, out_features=2048, bias=True)
        (dropout): Dropout(p=0.0, inplace=False)
        (linear2): Linear(in_features=2048, out_features=256, bias=True)
        (norm1): LayerNorm((256,), eps=1e-05, elementwise_affine=True)
        (norm2): LayerNorm((256,), eps=1e-05, elementwise_affine=True)
        (norm3): LayerNorm((256,), eps=1e-05, elementwise_affine=True)
        (dropout1): Dropout(p=0.0, inplace=False)
        (dropout2): Dropout(p=0.0, inplace=False)
        (dropout3): Dropout(p=0.0, inplace=False)
        (cls_module): ModuleList(
          (0): Linear(in_features=256, out_features=256, bias=False)
          (1): LayerNorm((256,), eps=1e-05, elementwise_affine=True)
          (2): ReLU(inplace=True)
        )
        (reg_module): ModuleList(
          (0): Linear(in_features=256, out_features=256, bias=False)
          (1): LayerNorm((256,), eps=1e-05, elementwise_affine=True)
          (2): ReLU(inplace=True)
          (3): Linear(in_features=256, out_features=256, bias=False)
          (4): LayerNorm((256,), eps=1e-05, elementwise_affine=True)
          (5): ReLU(inplace=True)
          (6): Linear(in_features=256, out_features=256, bias=False)
          (7): LayerNorm((256,), eps=1e-05, elementwise_affine=True)
          (8): ReLU(inplace=True)
        )
        (class_logits): Linear(in_features=256, out_features=1, bias=True)
        (bboxes_delta): Linear(in_features=256, out_features=4, bias=True)
      )
      (5): RCNNHead(
        (self_attn): MultiheadAttention(
          (out_proj): NonDynamicallyQuantizableLinear(in_features=256, out_features=256, bias=True)
        )
        (inst_interact): DynamicConv(
          (dynamic_layer): Linear(in_features=256, out_features=32768, bias=True)
          (norm1): LayerNorm((64,), eps=1e-05, elementwise_affine=True)
          (norm2): LayerNorm((256,), eps=1e-05, elementwise_affine=True)
          (activation): ReLU(inplace=True)
          (out_layer): Linear(in_features=12544, out_features=256, bias=True)
          (norm3): LayerNorm((256,), eps=1e-05, elementwise_affine=True)
        )
        (linear1): Linear(in_features=256, out_features=2048, bias=True)
        (dropout): Dropout(p=0.0, inplace=False)
        (linear2): Linear(in_features=2048, out_features=256, bias=True)
        (norm1): LayerNorm((256,), eps=1e-05, elementwise_affine=True)
        (norm2): LayerNorm((256,), eps=1e-05, elementwise_affine=True)
        (norm3): LayerNorm((256,), eps=1e-05, elementwise_affine=True)
        (dropout1): Dropout(p=0.0, inplace=False)
        (dropout2): Dropout(p=0.0, inplace=False)
        (dropout3): Dropout(p=0.0, inplace=False)
        (cls_module): ModuleList(
          (0): Linear(in_features=256, out_features=256, bias=False)
          (1): LayerNorm((256,), eps=1e-05, elementwise_affine=True)
          (2): ReLU(inplace=True)
        )
        (reg_module): ModuleList(
          (0): Linear(in_features=256, out_features=256, bias=False)
          (1): LayerNorm((256,), eps=1e-05, elementwise_affine=True)
          (2): ReLU(inplace=True)
          (3): Linear(in_features=256, out_features=256, bias=False)
          (4): LayerNorm((256,), eps=1e-05, elementwise_affine=True)
          (5): ReLU(inplace=True)
          (6): Linear(in_features=256, out_features=256, bias=False)
          (7): LayerNorm((256,), eps=1e-05, elementwise_affine=True)
          (8): ReLU(inplace=True)
        )
        (class_logits): Linear(in_features=256, out_features=1, bias=True)
        (bboxes_delta): Linear(in_features=256, out_features=4, bias=True)
      )
    )
  )
  (criterion): SetCriterion(
    (matcher): HungarianMatcher()
  )
)
[09/27 13:18:12] detectron2 INFO: ==> initializing train data from /data/zelinliu/SparseRCNN/mix/mix_20/annotations/train.json, 
 images from /data/zelinliu ...
[09/27 13:18:22] detectron2 WARNING: 
        Category_ids in current annotations file are not start to 0, we will map 'category_id' in the annotation files to 0..num_categories !      
…
